Neural Network Tools for STM32AI v1.6.0 (STM.ai v7.1.0-RC3)
Created date          : 2023-02-12 16:50:51
Parameters            : generate -m results/model.onnx --type onnx -o ../deployment/X-CUBE-AI/App --name model

Exec/report summary (generate)
------------------------------------------------------------------------------------------------------------------------
model file            : /home/me/Documents/git/mystuff/tinyml/stwin_AI_vowel_detection/trainer/results/model.onnx
type                  : onnx
c_name                : model
compression           : lossless
workspace dir         : /home/me/Documents/git/mystuff/tinyml/stwin_AI_vowel_detection/trainer/stm32ai_ws
output dir            : /home/me/Documents/git/mystuff/tinyml/stwin_AI_vowel_detection/deployment/X-CUBE-AI/App
model_name            : model
model_hash            : 97ec228e285f1ec224edb27498a05d3b
input 1/1             : 'input'
                        2400 items, 9.38 KiB, ai_float, float, (1,6,20,20), domain:user/
output 1/1            : 'output'
                        5 items, 20 B, ai_float, float, (1,1,1,5), domain:user/
params #              : 3,401 items (13.29 KiB)
macc                  : 533,636
weights (ro)          : 13,604 B (13.29 KiB) (1 segment)
activations (rw)      : 12,624 B (12.33 KiB) (1 segment)
ram (total)           : 22,244 B (21.72 KiB) = 12,624 + 9,600 + 20

Model name - model ['input'] ['output']
--------------------------------------------------------------------------------------------------------------------------------------------------------------------------------------------
id   layer (type)                                 oshape         param/size     macc      connected to                          |   c_size          c_macc            c_type               
--------------------------------------------------------------------------------------------------------------------------------------------------------------------------------------------
8    linear_weight (Placeholder)                  (1,24,1,5)     120/480                                                        |   -480(-100.0%)                    
     linear_bias (Placeholder)                    (1,1,1,5)      5/20                                                           |   -20(-100.0%)                     
--------------------------------------------------------------------------------------------------------------------------------------------------------------------------------------------
0    input (Input)                                (1,20,20,6)                                                                   |                                     transpose()[0]       
     _conv1_Conv_output_0 (Conv2D)                (1,20,20,12)   660/2,640      259,212   input                                 |                   +9,600(+3.7%)     optimized_conv2d()[1]
--------------------------------------------------------------------------------------------------------------------------------------------------------------------------------------------
1    _relu1_Relu_output_0 (Nonlinearity)          (1,20,20,12)                  4,800     _conv1_Conv_output_0                  |                   -4,800(-100.0%)  
--------------------------------------------------------------------------------------------------------------------------------------------------------------------------------------------
2    _pool1_MaxPool_output_0 (Pool)               (1,10,10,12)                  4,800     _relu1_Relu_output_0                  |                   -4,800(-100.0%)  
--------------------------------------------------------------------------------------------------------------------------------------------------------------------------------------------
3    _conv2_Conv_output_0 (Conv2D)                (1,10,10,24)   2,616/10,464   259,224   _pool1_MaxPool_output_0               |                   +4,800(+1.9%)     optimized_conv2d()[2]
--------------------------------------------------------------------------------------------------------------------------------------------------------------------------------------------
4    _relu2_Relu_output_0 (Nonlinearity)          (1,10,10,24)                  2,400     _conv2_Conv_output_0                  |                   -2,400(-100.0%)  
--------------------------------------------------------------------------------------------------------------------------------------------------------------------------------------------
5    _pool2_MaxPool_output_0 (Pool)               (1,5,5,24)                    2,400     _relu2_Relu_output_0                  |                   -2,400(-100.0%)  
--------------------------------------------------------------------------------------------------------------------------------------------------------------------------------------------
6    _avgpool_GlobalAveragePool_output_0 (Pool)   (1,1,1,24)                    600       _pool2_MaxPool_output_0               |                                     pool()[3]            
--------------------------------------------------------------------------------------------------------------------------------------------------------------------------------------------
7    _Flatten_output_0 (Reshape)                  (1,1,1,24)                              _avgpool_GlobalAveragePool_output_0   |                                    
--------------------------------------------------------------------------------------------------------------------------------------------------------------------------------------------
8    _linear_Gemm_output_0 (Gemm)                 (1,1,1,5)                     125       _Flatten_output_0                     |   +500(+100.0%)                     gemm()[4]            
                                                                                          linear_weight                         |  
                                                                                          linear_bias                           |  
--------------------------------------------------------------------------------------------------------------------------------------------------------------------------------------------
9    output (Nonlinearity)                        (1,1,1,5)                     75        _linear_Gemm_output_0                 |                                     nl()/o[5]            
--------------------------------------------------------------------------------------------------------------------------------------------------------------------------------------------
model/c-model: macc=533,636/533,636  weights=13,604/13,604  activations=--/12,624 io=--/9,620



Generated C-graph summary
------------------------------------------------------------------------------------------------------------------------
model name            : model
c-name                : model
c-node #              : 6
c-array #             : 15
activations size      : 12624 (1 segments)
weights size          : 13604 (1 segments)
macc                  : 533636
inputs                : ['input_output']
outputs               : ['output_output']

C-Arrays (15)
-------------------------------------------------------------------------------------------------------------------------
c_id   name (*_array)                               item/size    domain/mem-pool           c-type        fmt     comment
-------------------------------------------------------------------------------------------------------------------------
0      input_output                                 2400/9600    user/                     float         float   /input 
1      input_Transpose_output                       2400/9600    activations/**default**   float         float          
2      _conv1_Conv_output_0_output                  1200/4800    activations/**default**   float         float          
3      _conv2_Conv_output_0_output                  600/2400     activations/**default**   float         float          
4      _avgpool_GlobalAveragePool_output_0_output   24/96        activations/**default**   float         float          
5      _linear_Gemm_output_0_output                 5/20         activations/**default**   float         float          
6      output_output                                5/20         user/                     float         float   /output
7      _conv1_Conv_output_0_weights                 648/2592     weights/                  const float   float          
8      _conv1_Conv_output_0_bias                    12/48        weights/                  const float   float          
9      _conv2_Conv_output_0_weights                 2592/10368   weights/                  const float   float          
10     _conv2_Conv_output_0_bias                    24/96        weights/                  const float   float          
11     linear_bias                                  5/20         weights/                  const float   float          
12     linear_weight                                120/480      weights/                  const float   float          
13     _conv1_Conv_output_0_scratch0                480/1920     activations/**default**   float         float          
14     _conv2_Conv_output_0_scratch0                480/1920     activations/**default**   float         float          
-------------------------------------------------------------------------------------------------------------------------

C-Layers (6)
-------------------------------------------------------------------------------------------------------------------------------------------------------
c_id   name (*_layer)                        id   layer_type         macc     rom     tensors                                         shape (array id)
-------------------------------------------------------------------------------------------------------------------------------------------------------
0      input_Transpose                       2    transpose          0        0       I: input_output                                 (1,6,20,20) (0) 
                                                                                      O: input_Transpose_output                       (1,20,20,6) (1) 
-------------------------------------------------------------------------------------------------------------------------------------------------------
1      _conv1_Conv_output_0                  2    optimized_conv2d   268812   2640    I: input_Transpose_output                       (1,20,20,6) (1) 
                                                                                      S: _conv1_Conv_output_0_scratch0                                
                                                                                      W: _conv1_Conv_output_0_weights                 (6,12,3,3) (7)  
                                                                                      W: _conv1_Conv_output_0_bias                    (1,1,1,12) (8)  
                                                                                      O: _conv1_Conv_output_0_output                  (1,10,10,12) (2)
-------------------------------------------------------------------------------------------------------------------------------------------------------
2      _conv2_Conv_output_0                  5    optimized_conv2d   264024   10464   I: _conv1_Conv_output_0_output                  (1,10,10,12) (2)
                                                                                      S: _conv2_Conv_output_0_scratch0                                
                                                                                      W: _conv2_Conv_output_0_weights                 (12,24,3,3) (9) 
                                                                                      W: _conv2_Conv_output_0_bias                    (1,1,1,24) (10) 
                                                                                      O: _conv2_Conv_output_0_output                  (1,5,5,24) (3)  
-------------------------------------------------------------------------------------------------------------------------------------------------------
3      _avgpool_GlobalAveragePool_output_0   6    pool               600      0       I: _conv2_Conv_output_0_output                  (1,5,5,24) (3)  
                                                                                      O: _avgpool_GlobalAveragePool_output_0_output   (1,1,1,24) (4)  
-------------------------------------------------------------------------------------------------------------------------------------------------------
4      _linear_Gemm_output_0                 8    gemm               125      500     I: _avgpool_GlobalAveragePool_output_0_output   (1,1,1,24) (4)  
                                                                                      I: linear_weight                                (1,5,1,24) (12) 
                                                                                      I: linear_bias                                  (1,1,1,5) (11)  
                                                                                      O: _linear_Gemm_output_0_output                 (1,1,1,5) (5)   
-------------------------------------------------------------------------------------------------------------------------------------------------------
5      output                                9    nl                 75       0       I: _linear_Gemm_output_0_output                 (1,1,1,5) (5)   
                                                                                      O: output_output                                (1,1,1,5) (6)   
-------------------------------------------------------------------------------------------------------------------------------------------------------



Complexity report per layer - macc=533,636 weights=13,604 act=12,624 ram_io=9,620
----------------------------------------------------------------------------------------------------
id   name                                  c_macc                    c_rom                     c_id
----------------------------------------------------------------------------------------------------
0    input                                 |                  0.0%   |                  0.0%   [0] 
0    _conv1_Conv_output_0                  ||||||||||||||||  50.4%   ||||              19.4%   [1] 
3    _conv2_Conv_output_0                  |||||||||||||||   49.5%   ||||||||||||||||  76.9%   [2] 
6    _avgpool_GlobalAveragePool_output_0   |                  0.1%   |                  0.0%   [3] 
8    _linear_Gemm_output_0                 |                  0.0%   |                  3.7%   [4] 
9    output                                |                  0.0%   |                  0.0%   [5] 

Generated files (5)
----------------------------------------------------------------------------------------------------------------
/home/me/Documents/git/mystuff/tinyml/stwin_AI_vowel_detection/deployment/X-CUBE-AI/App/model_config.h
/home/me/Documents/git/mystuff/tinyml/stwin_AI_vowel_detection/deployment/X-CUBE-AI/App/model.h
/home/me/Documents/git/mystuff/tinyml/stwin_AI_vowel_detection/deployment/X-CUBE-AI/App/model.c
/home/me/Documents/git/mystuff/tinyml/stwin_AI_vowel_detection/deployment/X-CUBE-AI/App/model_data.h
/home/me/Documents/git/mystuff/tinyml/stwin_AI_vowel_detection/deployment/X-CUBE-AI/App/model_data.c
