Neural Network Tools for STM32AI v1.6.0 (STM.ai v7.1.0-RC3)
Created date          : 2023-01-18 20:20:38
Parameters            : generate -m results/model.onnx --type onnx -o ../deployment/X-CUBE-AI/App --name model

Exec/report summary (generate)
------------------------------------------------------------------------------------------------------------------------
model file            : /home/me/Documents/git/mystuff/tinyml/stwin_AI_vowel_detection/trainer/results/model.onnx
type                  : onnx
c_name                : model
compression           : lossless
workspace dir         : /home/me/Documents/git/mystuff/tinyml/stwin_AI_vowel_detection/trainer/stm32ai_ws
output dir            : /home/me/Documents/git/mystuff/tinyml/stwin_AI_vowel_detection/deployment/X-CUBE-AI/App
model_name            : model
model_hash            : 107b10f43ef01e1940c45a5d7e3a1478
input 1/1             : 'input'
                        2400 items, 9.38 KiB, ai_float, float, (1,6,20,20), domain:user/
output 1/1            : 'output'
                        5 items, 20 B, ai_float, float, (1,1,1,5), domain:user/
params #              : 3,401 items (13.29 KiB)
macc                  : 533,636
weights (ro)          : 13,604 B (13.29 KiB) (1 segment)
activations (rw)      : 12,624 B (12.33 KiB) (1 segment)
ram (total)           : 22,244 B (21.72 KiB) = 12,624 + 9,600 + 20

Model name - model ['input'] ['output']
-------------------------------------------------------------------------------------------------------------------------------------------------------
id   layer (type)                  oshape         param/size     macc      connected to    |   c_size          c_macc            c_type               
-------------------------------------------------------------------------------------------------------------------------------------------------------
8    linear_weight (Placeholder)   (1,24,1,5)     120/480                                  |   -480(-100.0%)                    
     linear_bias (Placeholder)     (1,1,1,5)      5/20                                     |   -20(-100.0%)                     
-------------------------------------------------------------------------------------------------------------------------------------------------------
0    input (Input)                 (1,20,20,6)                                             |                                     transpose()[0]       
     node_29 (Conv2D)              (1,20,20,12)   660/2,640      259,212   input           |                   +9,600(+3.7%)     optimized_conv2d()[1]
-------------------------------------------------------------------------------------------------------------------------------------------------------
1    node_19 (Nonlinearity)        (1,20,20,12)                  4,800     node_29         |                   -4,800(-100.0%)  
-------------------------------------------------------------------------------------------------------------------------------------------------------
2    node_20 (Pool)                (1,10,10,12)                  4,800     node_19         |                   -4,800(-100.0%)  
-------------------------------------------------------------------------------------------------------------------------------------------------------
3    node_32 (Conv2D)              (1,10,10,24)   2,616/10,464   259,224   node_20         |                   +4,800(+1.9%)     optimized_conv2d()[2]
-------------------------------------------------------------------------------------------------------------------------------------------------------
4    node_23 (Nonlinearity)        (1,10,10,24)                  2,400     node_32         |                   -2,400(-100.0%)  
-------------------------------------------------------------------------------------------------------------------------------------------------------
5    node_24 (Pool)                (1,5,5,24)                    2,400     node_23         |                   -2,400(-100.0%)  
-------------------------------------------------------------------------------------------------------------------------------------------------------
6    node_25 (Pool)                (1,1,1,24)                    600       node_24         |                                     pool()[3]            
-------------------------------------------------------------------------------------------------------------------------------------------------------
7    node_26 (Reshape)             (1,1,1,24)                              node_25         |                                    
-------------------------------------------------------------------------------------------------------------------------------------------------------
8    node_27 (Gemm)                (1,1,1,5)                     125       node_26         |   +500(+100.0%)                     gemm()[4]            
                                                                           linear_weight   |  
                                                                           linear_bias     |  
-------------------------------------------------------------------------------------------------------------------------------------------------------
9    output (Nonlinearity)         (1,1,1,5)                     75        node_27         |                                     nl()/o[5]            
-------------------------------------------------------------------------------------------------------------------------------------------------------
model/c-model: macc=533,636/533,636  weights=13,604/13,604  activations=--/12,624 io=--/9,620



Generated C-graph summary
------------------------------------------------------------------------------------------------------------------------
model name            : model
c-name                : model
c-node #              : 6
c-array #             : 15
activations size      : 12624 (1 segments)
weights size          : 13604 (1 segments)
macc                  : 533636
inputs                : ['input_output']
outputs               : ['output_output']

C-Arrays (15)
-----------------------------------------------------------------------------------------------------
c_id   name (*_array)           item/size    domain/mem-pool           c-type        fmt     comment
-----------------------------------------------------------------------------------------------------
0      input_output             2400/9600    user/                     float         float   /input 
1      input_Transpose_output   2400/9600    activations/**default**   float         float          
2      node_29_output           1200/4800    activations/**default**   float         float          
3      node_32_output           600/2400     activations/**default**   float         float          
4      node_25_output           24/96        activations/**default**   float         float          
5      node_27_output           5/20         activations/**default**   float         float          
6      output_output            5/20         user/                     float         float   /output
7      node_29_weights          648/2592     weights/                  const float   float          
8      node_29_bias             12/48        weights/                  const float   float          
9      node_32_weights          2592/10368   weights/                  const float   float          
10     node_32_bias             24/96        weights/                  const float   float          
11     linear_bias              5/20         weights/                  const float   float          
12     linear_weight            120/480      weights/                  const float   float          
13     node_29_scratch0         480/1920     activations/**default**   float         float          
14     node_32_scratch0         480/1920     activations/**default**   float         float          
-----------------------------------------------------------------------------------------------------

C-Layers (6)
---------------------------------------------------------------------------------------------------------------
c_id   name (*_layer)    id   layer_type         macc     rom     tensors                     shape (array id)
---------------------------------------------------------------------------------------------------------------
0      input_Transpose   2    transpose          0        0       I: input_output             (1,6,20,20) (0) 
                                                                  O: input_Transpose_output   (1,20,20,6) (1) 
---------------------------------------------------------------------------------------------------------------
1      node_29           2    optimized_conv2d   268812   2640    I: input_Transpose_output   (1,20,20,6) (1) 
                                                                  S: node_29_scratch0                         
                                                                  W: node_29_weights          (6,12,3,3) (7)  
                                                                  W: node_29_bias             (1,1,1,12) (8)  
                                                                  O: node_29_output           (1,10,10,12) (2)
---------------------------------------------------------------------------------------------------------------
2      node_32           5    optimized_conv2d   264024   10464   I: node_29_output           (1,10,10,12) (2)
                                                                  S: node_32_scratch0                         
                                                                  W: node_32_weights          (12,24,3,3) (9) 
                                                                  W: node_32_bias             (1,1,1,24) (10) 
                                                                  O: node_32_output           (1,5,5,24) (3)  
---------------------------------------------------------------------------------------------------------------
3      node_25           6    pool               600      0       I: node_32_output           (1,5,5,24) (3)  
                                                                  O: node_25_output           (1,1,1,24) (4)  
---------------------------------------------------------------------------------------------------------------
4      node_27           8    gemm               125      500     I: node_25_output           (1,1,1,24) (4)  
                                                                  I: linear_weight            (1,5,1,24) (12) 
                                                                  I: linear_bias              (1,1,1,5) (11)  
                                                                  O: node_27_output           (1,1,1,5) (5)   
---------------------------------------------------------------------------------------------------------------
5      output            9    nl                 75       0       I: node_27_output           (1,1,1,5) (5)   
                                                                  O: output_output            (1,1,1,5) (6)   
---------------------------------------------------------------------------------------------------------------



Complexity report per layer - macc=533,636 weights=13,604 act=12,624 ram_io=9,620
------------------------------------------------------------------------
id   name      c_macc                    c_rom                     c_id
------------------------------------------------------------------------
0    input     |                  0.0%   |                  0.0%   [0] 
0    node_29   ||||||||||||||||  50.4%   ||||              19.4%   [1] 
3    node_32   |||||||||||||||   49.5%   ||||||||||||||||  76.9%   [2] 
6    node_25   |                  0.1%   |                  0.0%   [3] 
8    node_27   |                  0.0%   |                  3.7%   [4] 
9    output    |                  0.0%   |                  0.0%   [5] 

Generated files (5)
----------------------------------------------------------------------------------------------------------------
/home/me/Documents/git/mystuff/tinyml/stwin_AI_vowel_detection/deployment/X-CUBE-AI/App/model_config.h
/home/me/Documents/git/mystuff/tinyml/stwin_AI_vowel_detection/deployment/X-CUBE-AI/App/model.h
/home/me/Documents/git/mystuff/tinyml/stwin_AI_vowel_detection/deployment/X-CUBE-AI/App/model.c
/home/me/Documents/git/mystuff/tinyml/stwin_AI_vowel_detection/deployment/X-CUBE-AI/App/model_data.h
/home/me/Documents/git/mystuff/tinyml/stwin_AI_vowel_detection/deployment/X-CUBE-AI/App/model_data.c
